CNN_Python/modelo_tesis_binario_Angry_finalv5.tflite (tflite, 66608 bytes, 11 tensors)

sequential_1/conv2d_3/BiasAdd/ReadVariableOp f4 [32]
00000000: 6524 783d fcab 4bbe 4742 9fbb de57 a03d
00000010: 664d 703d d5f8 b33e 539f e33d d5b1 ccbb
00000020: edf9 bebc e1b2 ba3c 4e04 4dbd bf9d 003e
00000030: 4fda e73b 8271 413d f789 9ebc d630 d8bd
00000040: 2e19 a4bd 88bf 8dbc 79bf ebbc 831f 903c
00000050: ccc8 dfbd 705b 013d 50b7 e73d 9dd1 e5bc
00000060: 4816 a83d 25e8 05bd 26f2 433d 7d6e 133e
00000070: c8fe f1b7 2fbd f4bc a9cc f73b 558a 2a3d
0.060581584 -0.19889826 -0.004860196 0.07829259 0.058667563 0.3515078 0.11114373 -0.006246785
-0.023312533 0.022790374 -0.050052933 0.12560175 0.007075585 0.04722739 -0.019352896 -0.1055619
-0.08012615 -0.017303243 -0.028777825 0.017593151 -0.10926971 0.031581342 0.11314261 -0.028054053
0.08207375 -0.032692093 0.047838353 0.14397617 -2.884808e-05 -0.029875366 0.007562239 0.04163583

sequential_1/conv2d_4/BiasAdd/ReadVariableOp f4 [16]
00000000: 698b 4c3e 5ef0 233b edd1 79bc 8650 d2bc
00000010: 6dd8 e8bd a4eb 08bc fba2 34bc 0391 9ebb
00000020: 09b9 9f3c f11a adbc 50fa 333d af46 e5bb
00000030: cdcb 0a3d ac8b bc3c 3059 b73d 5ee3 65ba
0.19975056 0.0025015096 -0.015247804 -0.025673162 -0.11369405 -0.008356962 -0.011025186 -0.004839064
0.019497411 -0.02113101 0.04393989 -0.0069969515 0.033885766 0.02301582 0.08952558 -0.0008769537

sequential_1/conv2d_5/BiasAdd/ReadVariableOp f4 [16]
00000000: 1661 11bc 8249 583b fac6 9fbc 82f0 a0bc
00000010: 2678 94b9 63a1 90bd 2f0c 5ebc 659c 7bbc
00000020: dce3 29bc 0d1f 95bc 8e3a 7abc 419b a0bc
00000030: 85d9 79bd ec74 6cbd 1ba7 e4bc c309 05bd
-0.008873245 0.0033002798 -0.01950406 -0.019645933 -0.00028318277 -0.07062032 -0.0135527095 -0.015357112
-0.010369267 -0.018203283 -0.01527275 -0.01960528 -0.06099846 -0.057728693 -0.027911713 -0.032480013

sequential_1/conv2d_3/Conv2D f4 [32, 3, 3, 1]
00000000: 8b37 8a3c 24b3 143b 8d24 2a3b bdff 1fba
00000010: 11b8 a43c a48b 23bc 427b a4bc 1828 a3bc
00000020: 8d2c 443c 4c7c 68bb 7e74 f13b 0809 953b
00000030: 694c adbc 65df ecba 5049 fa3b 9216 37bc
00000040: 3b57 f8bb 2b43 ec3b fa14 893b a23d f939
00000050: b901 b43a 9608 5939 1a58 b6bb d655 bfbc
00000060: 900d 4d3c bfc5 14b9 7346 f4bb 54e7 9d3b
00000070: 37fc 3f3c 9c59 c0ba afe0 ba3c 6015 96bc
00000080: e43b 1abc 88c0 863a c0b7 293c dea8 d73b
00000090: a96f 853b 3906 b2bc c3a4 1cbc 05d7 f83b
000000a0: f312 71bb 825f d2bb d9bf 783b 438c 48bc
000000b0: d79f 9bbb 3e76 0c3c 550e 8d3b 9457 64bb
000000c0: f77e 98bc 3eec b4bb 526b 123b 14b3 a1bb
000000d0: 8289 cdbb 2e1e 973b 4c3c 35bc c3a7 e53a
000000e0: ca4a 55bc 5aa8 13bc 4d9c 72bc 9b33 6bbb
000000f0: 9f8d 25ba 8a19 953a a45c aa3b b748 853c
00000100: 2e0b 893b a832 803b 5ddd 833c d4b2 593b
00000110: a6f2 d3bb f1b0 9c3c 29b1 e2bc 21f1 ddbb
00000120: 7096 a937 c9ca 6639 09c5 3c3c 9dbb dbbb
00000130: c9e2 243b a663 373c 6fc0 6a3c cd76 9fbc
00000140: 0677 9dbc d028 b7bb ff45 2ebc 605c 7cbc
00000150: dad3 1d3c 9e9c 7d3c 8f95 043c e0c1 e1ba
00000160: 66a4 15bc 62dd 30bc b128 a73b 0a6c d33c
00000170: a9b5 dfbc cda0 2c3c 5e8b d03b 42ba bdbb
00000180: 245f 593a 5ff4 b2bc 72a5 373c f64b 073c
00000190: 0c35 583c 4df7 993a a64b 8ebb 11a3 26bc
000001a0: 362e 91bb 319e 2abc a673 8fbc d56e a5bb
000001b0: 6b19 d13b c46c 043c 0e39 1bba df9d 29bc
000001c0: bcf1 f8bb 39f1 35bc 2f1f 8abc 9807 5fbc
000001d0: 15da 07bc 1239 bdbb bf7b f73c 96d4 cc38
000001e0: f7a9 9f3c 66a5 d43b 5946 2c3c dfee 19bb
000001f0: 6833 57bc c610 3fbc 3f24 d73a 734d 51bb
00000200: 2912 2abc 472d 81bb 417d 18bc 66eb 74bc
00000210: 037d 183c d002 463b 76d3 7d3c 2984 313c
00000220: 439f e3bb e725 4ebc f822 7d3c 3295 a63c
00000230: a01e af3c 36d6 48bb bf95 ff3b b13e 003c
00000240: cad0 763b 91c0 dbbc c452 cb3c 73f9 2dbc
00000250: 0e46 1e3b 62cf 4f3c f738 4fbc ba3e 9f3c
00000260: 000f 1abc c734 82bb 0a66 a7bb c065 53ba
00000270: 3c4d 8fbb 0ff1 db3b f594 5ebb f964 8a3b
00000280: 3f23 c2ba 62bd 72bb fc2c c0bc 7a3f bc3b
00000290: ed00 2cbc 0b31 3b3b 2442 233c 444c 11bc
000002a0: e7a8 443b c82b c7ba 587a a4bb af9c 4b3b
000002b0: b3bd 343b 60fc 0f3c ad3e 443c 70fa 793c
000002c0: ad97 143c cb5f 903c b4cb 833c 2c07 9d3b
000002d0: f4ca febb 9779 ec3b 5fc9 1fbc bb3a 263b
000002e0: 5beb 953c 7c06 353c 2486 fb3c 54a8 afbb
000002f0: 3135 a2bc 5a20 ca3c d53e df3b d2a4 a6bc
00000300: b1ea 14bc f2f4 b33b e049 423c 7908 6dbc
00000310: e9ff a6ba 8f20 8d3c 4908 38bb 87d6 343c
00000320: 0249 59bb d2ca db3b bfb2 8cbc 750e 893a
00000330: f2a7 ad3a bcbd d9bb 6a44 d8ba e93f 18bc
00000340: 11df d63c 8f9f 4dbc 9181 a1bc 510e e83c
00000350: 9f0c 4dbc 1ec1 ddbb 38fc 08bc 3d31 ed3c
00000360: 43af 47bc 6d99 12bb 58c2 0fbb 3c87 3cbb
00000370: 0904 bcbb 6ff0 02bc 87d7 43bc e966 26bc
00000380: a969 89bc 7640 c93b a707 783c 528d 513c
00000390: 8182 193c dc45 d43a 1812 bdbc c2c7 083a
000003a0: 9722 43bc 7fed 183c 2ab3 4f3c 1211 7b3c
000003b0: 4b94 553b 7a39 87bc 32f1 fcbb 1956 763c
000003c0: d43b 493a 6f38 f0bb 47f9 4bbc 42e2 57bb
000003d0: b8c2 1dbb 2c38 fcbb f12c a3bb e331 b6bb
000003e0: 4a83 1bbb 0b01 4abc 28d1 f6ba 806e 7d3a
000003f0: d469 dfba a2c9 22bc b34f 78bb 19e4 d0b8
0.016872188 0.0022689784 0.0025961727 -0.00061034766 0.020107301 -0.009982023 -0.020078305 -0.01991658
0.011973512 -0.0035474477 0.0073686233 0.0045481957 -0.0211546 -0.0018071948 0.007638134 -0.011174815
-0.007578758 0.0072101555 0.004183409 0.000475389 0.0013733424 0.00020697931 -0.0055647017 -0.02335636
0.012515441 -0.00014188046 -0.0074546873 0.004818836 0.011717848 -0.0014675143 0.022812216 -0.01832074
-0.009413693 0.0010280767 0.010358751 0.00658141 0.004072149 -0.021731483 -0.009560767 0.0075939917
-0.0036784976 -0.006420077 0.0037956147 -0.012240472 -0.004749279 0.008573113 0.004304687 -0.003484224
-0.018615229 -0.0055213263 0.00223418 -0.004934678 -0.0062724957 0.004611752 -0.011061739 0.001752131
-0.013018319 -0.009012306 -0.014807773 -0.0035888914 -0.00063153537 0.0011375409 0.005199032 0.016270025
0.004182241 0.0039122887 0.016096765 0.0033218162 -0.006468135 0.019127341 -0.027672367 -0.0067731296
2.0216423e-05 0.00022010053 0.011521586 -0.006705715 0.0025159589 0.011193192 0.014328106 -0.019465828
-0.019221794 -0.005589582 -0.010636806 -0.015402883 0.009633029 0.015479235 0.008092298 -0.0017223917
-0.009133434 -0.010794969 0.0051012863 0.025808353 -0.027308302 0.010536385 0.00636427 -0.005790026
0.000829207 -0.02184504 0.011208879 0.008257857 0.013196241 0.0011746675 -0.004342514 -0.010170714
-0.0044305576 -0.010413692 -0.0175112 -0.0050486126 0.006381204 0.008082572 -0.00059212826 -0.010352581
-0.0075971764 -0.011104875 -0.016860573 -0.01361265 -0.008291741 -0.0057746256 0.030210374 9.767075e-05
0.019490225 0.0064894436 0.010514819 -0.0023488326 -0.013134815 -0.011661714 0.0016414 -0.0031937032
-0.010380306 -0.003942165 -0.009307207 -0.0149487015 0.009307149 0.0030214079 0.015492311 0.010834732
-0.0069464757 -0.012582279 0.015450232 0.020334814 0.021376908 -0.0030645258 0.0077998335 0.007827447
0.003766107 -0.026825221 0.02481974 -0.010618555 0.0024150643 0.012683721 -0.012647859 0.01943909
-0.00940299 -0.0039735767 -0.0051085996 -0.0008064173 -0.0043732207 0.006712086 -0.0033963297 0.0042234627
-0.001481153 -0.003703915 -0.02345895 0.0057448717 -0.010498268 0.0028563167 0.0099645 -0.008868281
0.00300079 -0.0015195543 -0.0050194673 0.0031068732 0.002757889 0.008788198 0.011977834 0.015257463
0.009069365 0.017623803 0.016088344 0.0047921147 -0.0077756587 0.007216643 -0.0097526 0.0025364596
0.018300703 0.011048909 0.030703612 -0.0053606424 -0.019800754 0.02467363 0.00681291 -0.020342264
-0.009089158 0.0054918462 0.0118584335 -0.014467352 -0.0012741062 0.01722744 -0.002808111 0.011037475
-0.0033155088 0.0067075277 -0.017175077 0.0010456579 0.0013248904 -0.0066449326 -0.0016499881 -0.009292581
0.026229413 -0.012550249 -0.019715102 0.02832714 -0.012515216 -0.006767406 -0.008360915 0.028954143
-0.012187782 -0.002236928 -0.0021935906 -0.002876713 -0.0057377857 -0.007991894 -0.011953241 -0.010156372
-0.016774016 0.0061417175 0.015138543 0.012790041 0.009369493 0.0016195136 -0.023079917 0.00052177545
-0.011910102 0.009333967 0.012676993 0.015323894 0.003258961 -0.0165069 -0.0077191824 0.015035176
0.00076764566 -0.007330946 -0.012449569 -0.0032941257 -0.002407236 -0.007697126 -0.0049797227 -0.005560146
-0.0023729377 -0.01232935 -0.0018830644 0.000966765 -0.0017045089 -0.009935768 -0.0037889301 -9.9606994e-05

sequential_1/conv2d_4/Conv2D f4 [16, 3, 3, 32]
00000000: 0301 c83d 8654 0bbe 522f d5bb 122f 4a3d
00000010: 7b61 5a3c 4e63 2fbd a28f 323d c6cf 753a
00000020: 5cb5 98ba 8d66 4d3d d308 c1bd cf91 06be
00000030: 136c 2dbe 58d2 a1bd 7148 09bb b4fd a93d
00000040: 722b 8dbc fbf0 143d 81ee 75bd 6058 ebbb
00000050: 40e9 b9bc 72af 45bd 0d1f 06be baf6 8d3d
00000060: ece0 603d 7b9c c6bd eb41 ac3c c792 b8bd
00000070: a0b4 e53b 6843 5b3d 8348 a53d a256 403d
00000080: 1766 93bd 0bc5 46bd 5090 903d a1af 1ebd
00000090: 464a 44bd bde4 b23b 627d 55bd 6b78 f3bd
000000a0: 9903 40be 892f 6f3d 3ad5 96bd 6828 90bd
000000b0: 79b8 a23b f05f 47bd 9df4 0f3e b948 273d
000000c0: 59bc f1bd beb2 b03d bdb4 6abd 87ff c4bd
000000d0: 2c07 16bd 67f3 893d f668 273d c2c1 4abe
000000e0: 1ebc c93d f95d 4a3d c4e3 b2bc 93a2 21bd
000000f0: f377 cbbd 1400 5cbd f7ce 67bd 3da3 dcbc
00000100: 4210 19be 74aa 98bd a07f 0e3e 4e6e 633d
00000110: 511e 0a3e e29e 303e 9966 cfbc d22f 6abd
00000120: b163 0dbd 3ae4 d33d c5e4 fb3c ea32 be3d
00000130: bd80 10bd 69f5 f0bd 2d70 9c3d 1f3d 133e
00000140: 30d3 7bbd 7a82 9fbd 84b5 03bd 9630 bd3d
00000150: 26d0 c73c 63f2 0b3e 6187 cf3d 9309 34bd
00000160: 8cb7 54bb 7f47 1f3e 95b1 83bc 4496 93bd
00000170: 5f85 aebc e4a9 143e a45c 9bbc 26f7 e23d
00000180: fd81 88bc e58e 313d e59f b1bd fe76 5538
00000190: 3976 a83d f64a 9b3c b417 fcbc a2a8 bdbd
000001a0: 1843 fc3d 5124 cebd 687d 6abd 079f 313d
000001b0: 0a7d 89bc 6ff1 f13d f034 cfbd e5aa 543d
000001c0: bec8 a33c 2fb5 96bd a212 a8bd 52f3 193e
000001d0: e255 e73d 28a2 6abb 6161 30bd ea95 213e
000001e0: e9c7 acbd 9ee8 2ebd 9feb d73d 6a9d debd
000001f0: 5db0 9a3c 43e0 10bd db35 863d 2b38 413c
00000200: efca ec3d d3ee ea3c ffe1 c33c 348f 323e
00000210: e84c 593d 3272 a6bb 3ab4 a53d 7085 283e
00000220: de89 cd3d 9260 e1bd b1d1 12be 15e2 953b
00000230: abe6 2dbd 35a9 863d d5d2 b6bc 7f89 00be
00000240: 8ba1 80bd 92c4 58bd 568c 383d b6bf c83d
00000250: cecc 933c cda9 a53c 7d3a 243d b500 b83d
00000260: 9fca f2bc 1a66 3cbd 52cc cc3c b982 80bd
00000270: c1c2 e3bd ade7 9abc 97e5 a9bb 091d 453c
00000280: 6077 9aba 05b5 60bd 41fd 97bc 4048 1e3d
00000290: 654a 57bd 4f3d 2c3d 457e 893d b664 00bd
000002a0: 854f c2bd 5432 83bc a352 83bd fa9f 47bc
000002b0: ebf9 5ebd e86d 1abe 62e7 c0bd e30f b4bd
000002c0: d666 14be 67f2 ab3d 330d 9b3d 3a0f 9ebd
000002d0: b4e7 79bd da62 2bbc 3aa7 533d 4d4e 933d
000002e0: 6d8e 983d 810b c1bd 9729 3abd df9a 743d
000002f0: 0b18 f1bb 85e4 31bd 1033 52bc cc8a 163d
00000300: e447 f23c 9eb6 ac3d 6743 493d 33f2 823d
00000310: d278 febd b0e6 9d3a 4fef a3bd 96b7 843d
00000320: 140d f03c cb4b af3c a403 33ba ea59 213e
00000330: adfb 693d feb7 4d3e eee1 95bd 92dd 2f3d
00000340: 79a5 5c3c aa59 853d 2923 24be 5c31 35bd
00000350: 325a 65be 88e8 03bb 6aa8 2abd 0976 aabd
00000360: e4cc d8bd ae67 ad3d cd18 183d d8f7 ecbc
00000370: fe1d c4bd 3157 4ebe 4942 8bbc 2cee 0cbd
00000380: 0c22 85bc 7067 56bd 97c8 c13c 3840 873d
00000390: 6a82 033e 9705 183e 3a60 f73d 53d0 cbba
000003a0: a074 e9bc bc95 89bd 4db4 303e 839c fa3d
000003b0: 058e 1a3d baa8 2dbd 4bf5 c93d 56a4 29bd
000003c0: 041a 1c3e 117a 3abc 5987 443d 7b72 28bc
000003d0: 0b32 aabe 1ad8 333e ef74 bd3d 59ea 2e3c
000003e0: 86a5 963d ae7e 4a3e 3c24 f73d 011b bf3d
000003f0: ce8f 513c b664 afbd 59d5 aa3d b248 073e
0.09765818 -0.13606462 -0.006505885 0.049361296 0.013328905 -0.042819314 0.04359401 0.0009376969
-0.0011650729 0.05014663 -0.09425511 -0.13141559 -0.16935758 -0.07901448 -0.002094772 0.08300343
-0.01723263 0.03636263 -0.06004191 -0.007182166 -0.02269423 -0.04826302 -0.13097782 0.06931825
0.054902002 -0.09697815 0.021027526 -0.090123706 0.0070100576 0.05353108 0.08070471 0.04695762
-0.071972065 -0.04852776 0.070587754 -0.03874171 -0.047922395 0.0054593966 -0.052121527 -0.11888202
-0.18751372 0.058394942 -0.073648885 -0.07038957 0.0049658385 -0.048675478 0.14058156 0.040840838
-0.118035026 0.08627842 -0.05730127 -0.096190505 -0.036627933 0.067358784 0.040871583 -0.19800475
0.09850334 0.049406026 -0.021837123 -0.039461683 -0.09934988 -0.053711012 -0.05659386 -0.026933307
-0.14947608 -0.07454386 0.13915873 0.055525117 0.13488127 0.17248109 -0.025317477 -0.05717451
-0.0345189 0.10346265 0.030748734 0.09287055 -0.035279024 -0.11765558 0.07638583 0.14378785
-0.0614807 -0.07788558 -0.03215553 0.09237783 0.024391245 0.13666682 0.10133243 -0.043954443
-0.0032458035 0.15554617 -0.016075889 -0.07206395 -0.02130383 0.14517933 -0.018965073 0.11082296
-0.016663546 0.043349165 -0.086730756 5.0893977e-05 0.08225674 0.018956643 -0.030773021 -0.0926068
0.123174846 -0.100655206 -0.057248503 0.04336455 -0.016783256 0.11813628 -0.10117519 0.05192079
0.019993182 -0.07358777 -0.08206679 0.15034226 0.11295678 -0.003580222 -0.043061618 0.15779844
-0.08436567 -0.04270231 0.10542988 -0.10869868 0.018882925 -0.035370123 0.06553241 0.011793177
0.11562144 0.028678333 0.023911474 0.1743744 0.05305186 -0.005079531 0.08091016 0.16457152
0.10036062 -0.110047475 -0.14337803 0.00457407 -0.04245631 0.065752424 -0.02231733 -0.1255245
-0.06280812 -0.05292184 0.04505571 0.09802191 0.018041994 0.020222569 0.04009484 0.0898451
-0.029637633 -0.04599581 0.024999771 -0.06274933 -0.11121131 -0.0189093 -0.00518484 0.012030848
-0.0011784844 -0.054860134 -0.018553378 0.03864312 -0.052561183 0.042050656 0.06713537 -0.031346045
-0.094878234 -0.01601521 -0.06412246 -0.0121841375 -0.05443756 -0.15080988 -0.09419133 -0.08792093
-0.14492354 0.08395844 0.07570877 -0.07717748 -0.061011985 -0.01046058 0.05167315 0.07192669
0.074490406 -0.09426022 -0.04544982 0.05971801 -0.0073576025 -0.043430824 -0.012829557 0.03675346
0.029575296 0.08433269 0.049136546 0.06393852 -0.124253884 0.00120469 -0.08004629 0.06480329
0.029303111 0.021398446 -0.00068288506 0.15756956 0.057124782 0.20089719 -0.07318483 0.042935915
0.013467186 0.06511243 -0.16029038 -0.044236526 -0.22397688 -0.0020127613 -0.04166452 -0.08323295
-0.10585955 0.08467041 0.037133027 -0.028926775 -0.09576033 -0.20150448 -0.01699938 -0.034406826
-0.016251586 -0.05234474 0.023655219 0.06604046 0.12842718 0.14845882 0.12078901 -0.0015549756
-0.028497994 -0.06718013 0.1725628 0.122368835 0.037733097 -0.04239724 0.09861239 -0.04141649
0.15244299 -0.011381642 0.04798064 -0.0102812005 -0.33241305 0.17562905 0.09250819 0.01067599
0.0735579 0.19774887 0.12067458 0.093313225 0.012790633 -0.08564131 0.08341474 0.13211325

sequential_1/conv2d_5/Conv2D f4 [16, 3, 3, 16]
00000000: 389a 813d 8694 0e3e 7994 febd 17bd a0bd
00000010: 50de 113e c9a7 9ebd 6ce0 353c 305b 3bbe
00000020: 8089 393b e290 93bd 87b0 a4be ac4e ed3c
00000030: c393 2abe 1d09 3d3e e37c 75be 8893 5bbe
00000040: e6a9 56be 51b4 003e bcec 21bc 549b ed3c
00000050: 5d25 f8bd 3f63 aebd e1e8 083e 760b 5abd
00000060: 11a0 90bd a023 3abe 5336 80be c45f c7bd
00000070: 04dc cbbd 4635 353d 7559 80be 1604 8cbb
00000080: 669a d5bd dd9e c63d b3b8 5b3d 5750 61bd
00000090: 8d7d c0bd fe63 ab3d af2f a73d 9064 e63d
000000a0: 465d 963d 0236 0abe 0ef6 4ebe 0045 78ba
000000b0: 3d4a 95bc a447 903d 9b3d eabd 4684 0abe
000000c0: 4361 0c3e 93b8 5e3d 2c98 2cbd a891 0cbe
000000d0: 4968 e4bd 6d68 dc3d 7415 313d cc08 e53d
000000e0: 6fde 423d 0795 103e cb74 d3bd ccf3 ffbb
000000f0: 612e e6bb 6a28 38bd d2ba d53d 6b96 29be
00000100: 33e3 ebbc c5f7 b63d 9e0b a93d a12d 733d
00000110: 70d3 5c3d 6db1 1e3e c4a7 92bd 0c48 623d
00000120: 94b5 be3d 57f0 ec3c 6a9e f2bd 55ba 093e
00000130: 4d9d 1ebe 00e7 cf3d d459 53bd bad4 963d
00000140: c77f d63b a460 6abc 4c89 7e3d ad28 b3bd
00000150: 8973 baba fbaf ecbc e17d 38bd 2384 dd3d
00000160: f554 f4bd 9e89 d2bc fb44 17bd 6038 10be
00000170: 3901 8e3b 608f 273e 937e 05bd ac27 163d
00000180: 9dcd 293e 006c e5bb 0f8b aebd 598b 02bd
00000190: b65b a53d 098b bebc a680 42bd 818e 503e
000001a0: a656 04be 8ad9 813c 62f6 b53d 00b2 5f3a
000001b0: e7c5 a33d dcef e33d f804 1f3e d503 e13d
000001c0: c656 ab3d 1b83 373d 200b 12be f3a3 bbbd
000001d0: fffd f43d 76f5 f83d 9d7a 583d 699b 4e3c
000001e0: eddb d0bd 39d6 24be 0b33 663d a0e6 563d
000001f0: 4786 e93c bbe8 cfbb 9b6b 85bd 7783 e7bd
00000200: 9dfb febb d233 01be 0d8a 503d 9f6c b33b
00000210: 1e9c 333d 3373 a63d 4ee1 9b3d d6cb f6bb
00000220: f98e cf3b bf64 9bbb fe72 d3ba f2f9 6cbd
00000230: 903e cc3d 6bce 31be 49de c0bd 78d8 7e3d
00000240: 7bba dbbd 6da3 28be 1aac f73c 3b89 bf3c
00000250: 52fd 893d 85f2 14be fe41 473d 0612 223b
00000260: 10d0 e03d 23be 9abd 64e0 1fbd fc15 0d3d
00000270: a5ae a9bc 5703 af3b 0808 053e d972 c53c
00000280: f823 d53d 676a f9bd 13a8 99bd 534e 0d3c
00000290: 1475 76bc 75d6 cfbc 157d 9d3c 9ec4 91ba
000002a0: 7f1a 323e 2a25 f5bd 6fd2 d5bd 8432 093e
000002b0: 6cb7 d9bd 01ac 79bd 0eb9 c23d ec57 633d
000002c0: f863 e6bc cf9a 3b3d e487 8f3d 4e43 e43d
000002d0: b460 29bd 4009 8a3d 62f0 973c 0ea4 bb3d
000002e0: 4d4b 273d d58f c23c ec05 2fbd 0b66 09be
000002f0: d094 8e3d 7af5 423e bc45 5ebd 1ba0 e93c
00000300: 2e06 cdbd 2ce9 a6bd de22 ebbd 8a73 e2bd
00000310: b646 07be 6e7d 5239 072d b73c 7ad1 b23d
00000320: bc82 f83c acbb a2bd 8db7 4e3b ec6a e6bd
00000330: f1c4 ba3c 63d0 b83d 64a0 dcbd 6528 bfbd
00000340: 9af0 febd e98b 1d3d 06c7 713d 5741 183e
00000350: 0eb6 4d3d 240d c8bc 3d9c dcbd 20af 5e3c
00000360: 4da9 6e3d f56d b4bd 856a 903d c0e8 f63c
00000370: edf3 0abd 4b7e 22bd bee4 36bd 36bf 2a3c
00000380: bbf9 aabd c3ad 9dbb 2796 133d 2e28 803c
00000390: 7933 393d 8c15 e23c 7dcc afbd 84e0 76bd
000003a0: 0577 a6bd a293 6cbe 7cc3 8fbd b9bf f23d
000003b0: 62e4 ee3d 229a 2b3b e489 05be 53d9 42bd
000003c0: 7257 05be 294e 22bd c2e1 fabd 354c 55bd
000003d0: 1774 95bd 1276 60bb 615f d3bd 8415 173e
000003e0: 2114 d73d b5cd 6dbc 60b3 00bc f36e 10bd
000003f0: 20af b4bc 0ccf b43d 9112 543d 637f ee3c
0.06328243 0.13923845 -0.12430663 -0.07848566 0.14244962 -0.07746846 0.01110087 -0.18296504
0.0028310716 -0.072053686 -0.3216593 0.028968178 -0.16657929 0.18460508 -0.23973422 -0.21442997
-0.20963249 0.12568785 -0.009883102 0.02900473 -0.121165015 -0.085150234 0.13370086 -0.053233586
-0.0706178 -0.18177652 -0.25041446 -0.09735063 -0.09954074 0.04424026 -0.2506825 -0.004272948
-0.1042984 0.096982695 0.05364294 -0.05500826 -0.09398947 0.08368681 0.08163392 0.112496495
0.07342009 -0.13497165 -0.2021105 -0.0009470731 -0.018223876 0.07044914 -0.114375316 -0.13527021
0.13708977 0.054375242 -0.04213731 -0.13727438 -0.11152703 0.10762105 0.04323335 0.111833185
0.04757541 0.1411935 -0.10325011 -0.0078110453 -0.0070245718 -0.044960417 0.10436024 -0.16561286
-0.02879486 0.08933977 0.08254169 0.059369687 0.05391258 0.1549737 -0.07160905 0.05524449
0.09311977 0.028923197 -0.11846621 0.13449986 -0.15489693 0.10151482 -0.05159934 0.07364793
0.006545994 -0.0143052675 0.062142655 -0.08747993 -0.0014225106 -0.028892508 -0.045041922 0.10816219
-0.11930267 -0.025700387 -0.03693102 -0.14084005 0.004333642 0.16363287 -0.032591414 0.036658928
0.16582341 -0.0070014 -0.08522617 -0.031871174 0.08074133 -0.023259657 -0.04748597 0.20366861
-0.12923679 0.015850801 0.088848844 0.0008533299 0.07996731 0.11129734 0.15529239 0.10987059
0.0836616 0.044802766 -0.14262056 -0.0916213 0.119625084 0.12156193 0.052851308 0.012610295
-0.101981975 -0.16097344 0.056201022 0.052466035 0.028506411 -0.0063448823 -0.06514665 -0.11304372
-0.0077814595 -0.12617424 0.050912905 0.005475595 0.043850057 0.08127441 0.07611333 -0.0075316234
0.0063341823 -0.0047422345 -0.0016132293 -0.057855554 0.0997287 -0.17363898 -0.094173975 0.06221816
-0.10728928 -0.16468592 0.030233432 0.023380866 0.0673777 -0.14545639 0.04864692 0.002472998
0.10977185 -0.07555797 -0.039032355 0.034444794 -0.02071316 0.0053409743 0.12991345 0.024102615
0.10407251 -0.12178498 -0.07502761 0.008624631 -0.015042562 -0.025370816 0.019224683 -0.0011121219
0.1739292 -0.11969979 -0.10440528 0.13398176 -0.10630688 -0.06095505 0.09507953 0.05550377
-0.02812384 0.045801934 0.07008341 0.1114565 -0.04135199 0.067400455 0.01854724 0.0916215
0.040843297 0.023750225 -0.042730257 -0.13417833 0.069619775 0.19038954 -0.054265723 0.028518727
-0.10010944 -0.08149943 -0.1148126 -0.110571936 -0.13210568 0.00020073887 0.022360338 0.08731361
0.030335777 -0.07945952 0.003154251 -0.112508625 0.022798987 0.090241216 -0.107727796 -0.093338765
-0.12448235 0.038463507 0.059027694 0.14868675 0.05022245 -0.024420328 -0.107719876 0.013591558
0.058266927 -0.08810035 0.07051567 0.03014028 -0.033924032 -0.039671224 -0.04465174 0.010421565
-0.083484136 -0.004811974 0.03603187 0.01564416 0.045215104 0.027598165 -0.08583925 -0.06027271
-0.0812817 -0.23103192 -0.070197076 0.118529744 0.11664654 0.00261844 -0.13040882 -0.047570538
-0.13021639 -0.03962532 -0.12250091 -0.05207463 -0.07297533 -0.0034250063 -0.103209265 0.14754301
0.10501886 -0.014514376 -0.007855266 -0.03526206 -0.022056162 0.088285536 0.05177552 0.029113477

sequential_1/dense_4/BiasAdd/ReadVariableOp f4 [32]
00000000: bdbf 133e fe17 b0bd 3156 883e ccc7 2a3e
00000010: 061d 2e3d 7b21 223d fe09 2e3e cffb 393e
00000020: 9a6e 033e 4215 66bd 718c fe3d 1353 623d
00000030: 596f 323e cd0a 5a3e 2ed8 f73d 815f 753d
00000040: e541 633e e2e8 353e a59b 313e ef2b 583e
00000050: 7f5a 1b3e 001a 3c3e e4be 583e 2bbe c63d
00000060: 2d9d 5f3d 5b14 6e3d c41e 77bd 9d49 c83d
00000070: 8f1d 623d e713 8f3d e15c ab3d 7d4e a33d
0.14428611 -0.08598326 0.2662826 0.16677779 0.042508148 0.03958271 0.16995999 0.18162464
0.1283516 -0.056172617 0.12429131 0.055255007 0.17425288 0.21293183 0.1210178 0.059905533
0.22193106 0.17764619 0.1734453 0.2111051 0.1517124 0.18369293 0.21166569 0.097042404
0.054593254 0.05812488 -0.060332075 0.097796656 0.05520397 0.06986218 0.083673246 0.07973955

sequential_1/dense_3/BiasAdd/ReadVariableOp f4 [32]
00000000: a385 edbb a853 b83b 0b72 17bc 4cd2 1a3c
00000010: 4a35 663c 15ca db39 3290 f939 85a6 96bc
00000020: 07fb abbc e765 71bd 911c 4b3c b78e ef3c
00000030: b278 3d3c 4ead 82bd d4bf d7bc c180 21bc
00000040: 5da7 173c d735 bcbc 2220 aa3c 6695 0f3c
00000050: da13 c63c 9d79 19bd e1ca f2bc 3312 463d
00000060: 4cae 08bc 62fa e8bb b8c1 f8bb d6f7 1d3b
00000070: 3fbf b8bc 7d6e 7fbb 071a 4ebb b5d3 47bc
-0.0072485968 0.005625207 -0.009243499 0.009449553 0.014050791 0.00041921498 0.00047600415 -0.01838995
-0.020993723 -0.058935072 0.0123969475 0.029242856 0.011564421 -0.063807115 -0.026336588 -0.0098573575
0.009256211 -0.022974892 0.020767275 0.008763647 0.024179388 -0.037469495 -0.029637756 0.0483572
-0.008342337 -0.007109926 -0.0075914524 0.002410402 -0.02255213 -0.0038975768 -0.003144862 -0.012196471

sequential_1/dense_3/MatMul f4 [32, 224]
00000000: 5475 913b 353c 29bb bb33 503b 300c 8bbb
00000010: 93b0 893b 6055 03bb 1773 bc3b 7ece 8d3b
00000020: e710 45bb 3c3c ef3a bfba 1eba 7732 5ab8
00000030: 1894 11bc cb1a bdba 04c0 9fbb 3d85 b0ba
00000040: 8c3d 8a3b 585d f03a fd5c 213b 968f d4bb
00000050: 10eb 8b3b be75 1abb e677 703b 5dd7 c43b
00000060: 2dfb 03bb 34ed 60ba 7591 52bb d52d c63b
00000070: a20f d3bb 0a71 eebb e55b 043b fcd9 72bb
00000080: 8026 b93a 9942 1fb9 fc65 193c 5486 61bb
00000090: 306b bc3b 5b1e c3bb 7182 ad3a bcf9 ae3b
000000a0: 9632 aaba 9255 d839 a1ed 4bbb 51e5 953b
000000b0: a8f0 aebb 027d 02bb fcbc 2b3a ce1e 5dbb
000000c0: 5523 e939 be7e 3bbb c383 c23b cf65 71bb
000000d0: 3f59 bf3b ded9 03bc fd87 583b f58f 353b
000000e0: 01e1 e1b9 8d20 fe3a 6c47 92bb 7a8c ec3a
000000f0: 6355 82bb 3169 b5bb 253d b63b d50f 83bb
00000100: 2653 083b d815 cfba 6c27 bd3b acd2 9bbb
00000110: b2ed 983b 50a0 5bbb 202d cb3b 1247 e73b
00000120: f26a 8ebb 165a a43b a30f f2bb c408 b73b
00000130: e116 77bb 35b6 2fbb e746 be3b 6308 64b9
00000140: 88d7 0d3b 9844 cebb 335b 0b3c 641b 8cba
00000150: eb23 c83b 315d faba 592b b83b 731e e43b
00000160: 72d1 35bb 8810 703b 0f8f d5bb 977c c03b
00000170: ed5e 5fbb 02db 1ebb 25c9 e03a 8dc5 88bb
00000180: e6f3 063b c850 56ba 730a a63b 1e59 d2ba
00000190: 6409 acb8 debb 5cbb be0b df3b 919f cb3b
000001a0: bac0 103c 7b11 203b ad8c 5abb 36a6 fd3b
000001b0: b567 72ba 9eb9 b8bb 6f2a 833b a8af 37bb
000001c0: 4ae4 5f3a 0f75 2f3b f19c 5dbb 36fb 16b9
000001d0: 0233 92bb 1d7a 3739 018b 98bb a6a3 013b
000001e0: 93a4 c83b 02b6 c33b 2eae 78ba 83b0 ee3a
000001f0: f189 6a3a 8eb7 c23a 1fd0 1bb9 a586 af3b
00000200: 004b 8e3a 2695 cf39 7162 91bb bee9 52ba
00000210: 6537 e5b9 14b4 dc3b 3286 2fbb 8aa5 013b
00000220: 9e46 b03b a0b9 003c ecf9 82b9 e067 4c3a
00000230: 9e17 8b3a 3f5f 3d3b bc8f f3b8 40cd 843b
00000240: e0d9 8d3b 0e76 cdba fd9a 2ebb 3bf8 4bba
00000250: 1f7f c8ba dda1 6f3b eea6 28bb caa5 9e3b
00000260: 9bcc 913b d6d2 36ba 15ed d9b9 a01d 3d3b
00000270: 5ef5 f53a 2147 833b a801 b536 e17e a83b
00000280: dfd9 883b eaf3 0d3a 34be 66bb a09f 6f3a
00000290: 5633 2e3b 2c04 9d3b c878 f8b9 45d1 663a
000002a0: 60d5 a83b acdb f03a 4191 10ba deb3 4239
000002b0: 1e9e 9e3b 29fd 223b 60c7 2db7 7f33 2a3b
000002c0: fbd8 6c3b f58f 31ba e929 55ba fef0 5d3a
000002d0: 7279 e7ba 843a 88ba 4756 c9ba 9b1a 643b
000002e0: 7412 6e3b 7236 d13b 578e 79ba 52df 7d3a
000002f0: 73cf f33b 490e 0eba 2bc6 d9b7 b009 1c3b
00000300: fe5a a63b 9e5c 213a 8822 a9ba 9119 e5ba
00000310: d440 7fba e4fa 9c3b f1aa 6aba 2dee 623a
00000320: 7463 a83b fe85 0c3a 9b1a 283b 44d0 ba3a
00000330: c5be 393b ea53 17ba 1bf7 2c39 bbd5 593b
00000340: 41a8 fe3a 139e 90ba b494 82bb 69f6 ac3a
00000350: 4859 3f3b 59b4 c63b 2def 00bb 5117 313a
00000360: b224 4339 6235 303b 2a91 a539 e198 ce39
00000370: 05cb 343b b16f 453a 9120 903a f5a9 003b
00000380: 05fd faba ac82 103b 6086 04bb 6f77 0d3b
00000390: b730 2dbb 922a b93a 050e 4bbb cac6 e3ba
000003a0: d925 063b 2cc9 8939 30fc ea39 1c50 c939
000003b0: 8beb 5e3b 62ca 3e3b 2c1d c23a c3d1 293b
000003c0: 892e d0ba 9d51 9e3a c3db 01bb 1538 2f3b
000003d0: d093 c3ba 8839 0f3a 0124 04bb 3d0a eeba
000003e0: 2a94 5eb9 f16a a239 fdc3 163b 712c bbba
000003f0: b86b 6e3b edb4 2f3b 2d7f 21bb 1b49 953a
0.0044390354 -0.002582324 0.0031769115 -0.004243396 0.0042019575 -0.00200399 0.0057510245 0.0043275943
-0.003006989 0.0018252204 -0.0006055049 -5.202225e-05 -0.008885406 -0.0014427541 -0.004875185 -0.0013467442
0.0042187627 0.0018338365 0.0024622076 -0.0064868433 0.004269965 -0.0023568715 0.0036692559 0.0060071186
-0.0020138726 -0.0008580268 -0.0032130156 0.006047944 -0.0064410726 -0.007276659 0.0020196375 -0.0037056198
0.0014125854 -0.00015188231 0.009362694 -0.0034412341 0.0057500824 -0.0059545464 0.0013237727 0.0053398293
-0.0012985046 0.00041262485 -0.003111698 0.004574456 -0.005338747 -0.0019910936 0.0006551293 -0.0033740285
0.00044467548 -0.002860948 0.0059361174 -0.0036834364 0.0058394964 -0.008047549 0.003304004 0.0027704213
-0.00043082985 0.0019388363 -0.0044640806 0.0018047236 -0.003977464 -0.0055362214 0.005561488 -0.00399969
0.0020801513 -0.0015799357 0.0057725217 -0.0047553387 0.0046670074 -0.0033512302 0.0062004477 0.007058033
-0.004346245 0.005015622 -0.007387118 0.0055857617 -0.0037702846 -0.0026811485 0.005806792 -0.00021746899
0.002164336 -0.006294798 0.00850563 -0.0010689315 0.0061077974 -0.001910126 0.005620402 0.0069616376
-0.0027743247 0.0036630947 -0.006517298 0.0058742273 -0.003408368 -0.0024239426 0.001714979 -0.0041739405
0.0020592152 -0.00081754895 0.0050671636 -0.0016048288 -8.203348e-05 -0.0033681314 0.0068068197 0.00621409
0.008835012 0.0024424482 -0.003334801 0.007740761 -0.0009247021 -0.0056373617 0.004002861 -0.0028028283
0.00085407926 0.0026772653 -0.0033815468 -0.00014398698 -0.004461647 0.00017497731 -0.0046552424 0.001978138
0.0061231344 0.0059726248 -0.0009486404 0.0018210564 0.00089469465 0.0014855729 -0.00014859483 0.005356627
0.0010856092 0.0003959324 -0.004436784 -0.00080456946 -0.00043719556 0.006735334 -0.0026782867 0.0019782507
0.005379512 0.007856756 -0.00024981739 0.0007797461 0.0010611897 0.0028895882 -0.000116139156 0.004052788
0.0043289512 -0.0015675442 -0.0026642673 -0.00077808247 -0.0015296674 0.0036564984 -0.0025734263 0.004841541
0.0044494397 -0.0006974166 -0.00041566105 0.002885677 0.0018765142 0.004006282 5.394413e-06 0.0051420783
0.004176363 0.0005415069 -0.0035208585 0.00091409124 0.0026580892 0.004791757 -0.00047392235 0.00088049873
0.0051523894 0.0018376014 -0.00055148086 0.00018568287 0.0048406264 0.0024870133 -1.0358024e-05 0.0025970635
0.0036140073 -0.00067734654 -0.000813155 0.00084663916 -0.0017660095 -0.0010393416 -0.0015360796 0.0034805897
0.0036326917 0.006384664 -0.00095198065 0.00096844614 0.0074405014 -0.0005418999 -2.5960695e-05 0.0023809485
0.005076765 0.00061554636 -0.0012903968 -0.0017478933 -0.0009737138 0.0047906507 -0.0008951864 0.0008656707
0.005138809 0.00053605426 0.0025650624 0.0014252742 0.0028342467 -0.0005772697 0.00016495252 0.0033238966
0.0019428806 -0.0011033438 -0.003985012 0.0013195995 0.0029197503 0.0060639796 -0.001967381 0.00067554886
0.00018610319 0.0026887287 0.00031579408 0.00039405285 0.002758683 0.0007531597 0.0010996034 0.0019632552
-0.0019148892 0.0022050543 -0.0020221695 0.002158608 -0.0026426741 0.0014127067 -0.0030983698 -0.0017377969
0.0020469336 0.0002628056 0.00044819852 0.00038397394 0.0034014906 0.0029112329 0.0014809719 0.0025912381
-0.0015883009 0.0012078766 -0.0019814826 0.0026736308 -0.0014921371 0.000546359 -0.0020163062 -0.001816101
-0.00021226765 0.00030978725 0.0023005002 -0.0014280212 0.0036380123 0.002681072 -0.0024642453 0.0011389585

sequential_1/dense_4/MatMul f4 [32, 32]
00000000: 1888 dfbe a404 0abe 9562 81bc ded6 283e
00000010: 658f cabe 737f c9be d47d 7c3c e3e9 50bd
00000020: 19ac 1a3d 858b 593e 1df5 df3e 3d57 5a3d
00000030: ba9c 203e 1888 363e 16d6 b53e 5dc7 9fbd
00000040: 84f5 423f 45fe 3c3e 5deb c93d e7db bf3e
00000050: 6d10 e03d 59d2 3c3e aaec 04bd 9a7a 00bf
00000060: 40d6 92be 08bb 9bbc a6c3 13bf cacd c6be
00000070: 183e 53be 69aa 373e f8db 3fbe b619 133e
00000080: 9d1d 5e3e fa79 613d 9af6 d83d faa3 71be
00000090: 0d77 99bd 6e2a 433d 43c3 1b3d 2523 b5bd
000000a0: 75eb 92bc 2f5b 72bd f848 50bd 7fc5 1c3e
000000b0: 0923 883d a422 a03d cc97 44be 0f50 fdbc
000000c0: 166a 7ebe cbdf 92be 92a7 90be 4707 213d
000000d0: f4bf 95bd fbe1 383c 1150 1f3d 1365 0e39
000000e0: 8bea 93be 684b c7bd 8f87 92be aa61 84be
000000f0: bd12 46be 7a97 23be 14e0 56be 6b62 953e
00000100: 2fda 45bf 7d3c 9e3e 7edb 34bd b3cb 1a3f
00000110: f56c 16bf c71f 9ebe f5fb 97be b803 aabe
00000120: a19a 023e cdcb bbbd 8870 283f 84ab 763c
00000130: 9d45 653e 16f2 163e 3cf1 053f 6031 54be
00000140: 70ba 373f cbd5 19be e04d a13e be0b a93d
00000150: f32e 0c3e c8f4 c63d 3dae 5e3c d934 40bf
00000160: 4183 2fbe 97e4 b0bd fa29 17bf c7e4 00bf
00000170: 5eff 35bf 7afc a2be b05d c6bc 49b5 81be
00000180: 8d29 b1be 307e 2fbe 6eaf 053d d35b 1b3f
00000190: 61b2 05bf a5a5 14bf 98bf 9bbe fd5e 99be
000001a0: 372b cd3d 6908 44be 923e 943f 019f d53d
000001b0: a047 533d 8a45 f8bc d17c f73e dc30 94bc
000001c0: 4f06 253f 59d1 2c3e e0fc 333f f4ba 633e
000001d0: 4f12 943d 7958 303e 606f 513d a1db 0fbf
000001e0: e9b3 95be e0fe f83b ddf0 e8be 8264 58be
000001f0: 5228 b0be 38b3 0a3e 05d1 08bd ef03 e5bd
00000200: d5a5 0e3f 548a 483d 172c 9e3e 006b b73c
00000210: 773d c13e ebab ab3e b392 b43e 8eaa cf3e
00000220: f528 86be c464 83bc 62d2 14be 2dd3 6a3e
00000230: 4e4d 8e3e 15d3 9f3d d3ad 33be a715 69be
00000240: c71f d9be be82 9ebc 85df 6ebe fd7a d5bd
00000250: a798 55be 01aa 00be 64ae 673e 921f d73e
00000260: cfb2 7a3e eae9 173e 21e7 043f bdcc 473d
00000270: 8da7 973e 4dad f53c 6191 d8bb 8eda fd3a
00000280: d85b 0a3f de54 61bd 9abd 923e c103 a6be
00000290: 30b2 373f 633b 273f b9f9 0f3e 87aa 713e
000002a0: 9ac3 433e 5149 83be 6a2e bebe 2ff4 62bc
000002b0: 99d4 1fbe 3c05 fa3d ac13 05be d19b 45be
000002c0: 18ae 45be f729 55be fa35 b4bd 3cab 263d
000002d0: ea28 683e d736 103e 7c45 fcbd b37f 113f
000002e0: d3d5 823e 83eb e3bd 59cd 253f 296a c83e
000002f0: 95b2 073f 4e42 333d 6691 8c3e 3e90 523e
00000300: 8bc3 9bbe 3e8a 04be df4f 053d 053c b63e
00000310: 5033 28bf 947d 10bf 88b2 c9be 5a42 99be
00000320: d577 6b3e 036b 03be f94a 243f 0584 6b3e
00000330: ec48 613e 7fb8 163e 95e4 023f e2f0 633e
00000340: 43fe 173f 70ef a8bc 5ab2 663e 5f27 853e
00000350: fd68 babd 4e53 863d af6e 2f3e 3bfe dfbe
00000360: 065f 33bd 31ad 86be f1cf dabe cec6 adbe
00000370: 0e1b 4cbe 1b50 8bbe 708c 4abe c013 ae3c
00000380: aa93 06bf 1227 5b3e 14c3 b7be 58dd 373f
00000390: 569c 00bf 07c3 bdbe 941a 93be f4b4 c0be
000003a0: 99b1 86bd 508a 5fbe 3f39 043f 5f3b 6a3d
000003b0: 13d7 0d3e 124f 80be 3457 003f b358 67be
000003c0: e03a c03e 3721 803d 230c 563e b3ce 0d3f
000003d0: 055e 8c3e 4091 c83d 45ac 6ebe 9a78 0ebf
000003e0: d316 1f3e 3b62 583e afa9 0ebf 36c2 d5be
000003f0: b2a9 d9be 3e4c f1be 98ed 943b fd23 77be
-0.4365852 -0.13478333 -0.015794078 0.16488215 -0.39562526 -0.3935505 0.015410859 -0.0510043
0.03776178 0.21244629 0.43741694 0.053305853 0.15684786 0.17825353 0.35514897 -0.078016974
0.7615588 0.18456371 0.09859345 0.3747246 0.10940633 0.18439616 -0.032452263 -0.50187075
-0.28679085 -0.019010082 -0.5772041 -0.3882888 -0.20629156 0.179361 -0.18736255 0.14365277
0.21690984 0.055047967 0.105939105 -0.23597708 -0.0749341 0.047647886 0.038028013 -0.08844594
-0.01793454 -0.05916899 -0.05085084 0.15309714 0.066473074 0.07819107 -0.19198531 -0.030921964
-0.24845156 -0.28686365 -0.28252846 0.03931358 -0.07312003 0.011284347 0.038894717 0.00013579828
-0.2888988 -0.097311795 -0.28619048 -0.25855762 -0.19343086 -0.15975752 -0.20983917 0.2917665
-0.77286047 0.30905524 -0.044154637 0.6046707 -0.58760005 -0.3088362 -0.29684415 -0.33205962
0.12754299 -0.09169731 0.6579671 0.015055541 0.22389837 0.14740786 0.5232122 -0.2072196
0.71768856 -0.15022962 0.31504726 0.08254193 0.13689785 0.09714657 0.013591346 -0.7508064
-0.17139913 -0.0863735 -0.59048426 -0.50349087 -0.71092784 -0.3183325 -0.024214596 -0.25333622
-0.34602013 -0.1713798 0.032638006 0.6068699 -0.5222531 -0.58065253 -0.30419612 -0.29955283
0.10018008 -0.19143833 1.1581595 0.10430718 0.05158198 -0.030306596 0.48337415 -0.018089704
0.6446275 0.16876735 0.7030773 0.22239286 0.072300546 0.1722125 0.051131606 -0.561945
-0.29238823 0.007598743 -0.45496264 -0.2113209 -0.34405762 0.13544929 -0.03340246 -0.11182391
0.5572179 0.048960045 0.30893013 0.022389889 0.37742206 0.335296 0.35268173 0.4055981
-0.26203123 -0.01603926 -0.1453338 0.2293212 0.27793354 0.078039326 -0.17546777 -0.22762166
-0.42407057 -0.019349452 -0.23327453 -0.10423849 -0.20859013 -0.12564851 0.22625118 0.42016274
0.24482273 0.14835325 0.51915175 0.048779238 0.2962002 0.029989863 -0.0066091274 0.0019367503
0.5404639 -0.055012576 0.2866028 -0.3242474 0.7175627 0.6532499 0.14060105 0.23600207
0.19117585 -0.25641873 -0.37144786 -0.013852163 -0.15608443 0.1220803 -0.12995785 -0.1929772
-0.19304693 -0.2081679 -0.08799358 0.040690646 0.22671857 0.1408342 -0.123179406 0.5683548
0.2555376 -0.11128905 0.6476646 0.39143494 0.5300687 0.043764405 0.2745468 0.20562837
-0.30422625 -0.1294336 0.032546874 0.35592666 -0.65703297 -0.56441617 -0.3939402 -0.29933435
0.22994931 -0.1283379 0.641769 0.2299958 0.22000474 0.14718817 0.5113004 0.22259858
0.5937235 -0.020621985 0.22528973 0.260066 -0.09102056 0.06558858 0.17132066 -0.4374865
-0.043791793 -0.2630401 -0.42736772 -0.33940738 -0.19932196 -0.27209553 -0.19780135 0.021249652
-0.5256907 0.21401623 -0.3589102 0.7182212 -0.5023855 -0.37062857 -0.28731215 -0.37638056
-0.06576843 -0.21830106 0.5164985 0.057185527 0.13851576 -0.25060326 0.5013306 -0.2259243
0.37544918 0.06256335 0.20903067 0.5539352 0.2741548 0.09793329 -0.23307903 -0.55652773
0.1553605 0.21131222 -0.55727667 -0.41749734 -0.4251228 -0.4712848 0.004544925 -0.24134822

sequential_1/dense_5/MatMul f4 [1, 32]
00000000: d490 ec3e 30b9 8e3d 45b2 f13e e166 ec3e
00000010: 8c4d f4be 30c8 3cbf a206 3b3f 7f9b 4e3f
00000020: f19c fbbe 8c4a 803e 6422 00bf c15c 46bf
00000030: dd9c 043f 594a b73e f5c5 e2be c6eb 2abf
00000040: 17a3 e33e 6a33 103f 87cc 203f ff36 3c3f
00000050: 33f7 213f ce8d 483f 2ef2 e83e 05c3 2abf
00000060: 40ef b4be be4f ecbe 0c05 36be 0d3d 17bf
00000070: 89e5 0cbf 2896 f5be 4a39 1ebf df26 07bf
0.46204245 0.069689155 0.4720632 0.4617224 -0.47715414 -0.7374296 0.73056996 0.8070602
-0.49143174 0.25056875 -0.50052476 -0.7748528 0.51801854 0.3579891 -0.44291654 -0.6676601
0.44460365 0.5632845 0.62812084 0.7352142 0.6326782 0.78341377 0.45497268 -0.66703826
-0.35338783 -0.46154588 -0.17775363 -0.5907753 -0.5503774 -0.47966123 -0.61806166 -0.5279369
